Levy_process_model/WN_model/wavelet_meanrev_checkpoint.pth (torch, 82374 bytes, 4 tensors)

w2 f4 [2]
000000 d2 ad 92 bf a0 61 96 3f
       -1.1459296 1.1748543

b f4 [2, 1]
000000 d0 aa 03 40 ce 5c 26 40
       2.0573006 2.5994143

log_a f4 [2, 1]
000000 5b 6a de 3f f9 be e0 3f
       1.7376207 1.755828

k_ser f4 [19883]
000000 d8 5e 7f be d8 5e 7f be d8 14 30 be 68 74 77 be
       -0.24938524 -0.24938524 -0.17195451 -0.24165499
000010 10 0f 52 be cc 49 65 be 18 f4 1d be e8 cf 0e be
       -0.20513558 -0.22391433 -0.15425146 -0.13946497
000020 ac a7 36 be c4 22 2a be a8 47 2d be 34 ce 28 be
       -0.17837399 -0.16614825 -0.16921866 -0.1648491
000030 24 da 19 be 5c 54 10 be 9c 69 2f be 48 18 26 be
       -0.1502462 -0.1409468 -0.1713013 -0.162202
000040 00 b2 06 be 7c da 15 be 18 66 22 be e4 d9 05 be
       -0.13153839 -0.14634126 -0.15859258 -0.130714
000050 60 2a 04 be 18 6a fc bd 80 0f fc bd 2c 5e 00 be
       -0.1290679 -0.12324923 -0.12307644 -0.12535924
000060 f0 06 fc bd 00 f4 2e be 80 fe 2e be d0 c9 18 be
       -0.12306011 -0.17085266 -0.17089272 -0.14920735
000070 f0 c0 2f be 38 67 00 be f0 94 30 be 40 88 fc bd
       -0.17163444 -0.12539375 -0.17244315 -0.12330675
000080 b0 d9 2e be 40 9c ff bd 90 db 2f be f0 ea fb bd
       -0.17075229 -0.12480974 -0.171736 -0.1230067
000090 14 6a 1d be 28 8f 05 be ac 28 26 be 24 be 0e be
       -0.15372497 -0.13042891 -0.16226453 -0.1393972
0000a0 a8 77 44 be 00 af 07 be e8 23 13 be 8c f9 08 be
       -0.1918627 -0.13250351 -0.14369166 -0.13376445
0000b0 a0 a6 ff bd 98 9f 0a be a0 ee 12 be 48 00 1c be
       -0.12482953 -0.13537443 -0.1434884 -0.15234482
0000c0 e4 ac 1e be 98 1b 2c be 5c b3 03 be f8 75 2d be
       -0.1549564 -0.16807401 -0.12861389 -0.16939533
0000d0 f8 d4 33 be 74 fb 1e be 74 3f 2d be a0 61 03 be
       -0.1756171 -0.15525609 -0.16918737 -0.1283021
0000e0 98 f5 10 be 58 49 fc bd 10 b2 05 be 1c 3d 08 be
       -0.14156187 -0.12318677 -0.13056207 -0.13304561
0000f0 f8 3a 2c be 20 a1 22 be e4 e7 1e be f4 bc 1f be
       -0.1681937 -0.15881777 -0.15518147 -0.15599424
000100 c4 fc 1d be 18 d3 1e be 70 33 25 be b8 7a 28 be
       -0.15428454 -0.15510213 -0.16132903 -0.16453063
000110 fc c5 20 be d0 9d 1e be 50 42 68 be e8 b0 1d be
       -0.15700525 -0.15489888 -0.22681546 -0.15399516
000120 80 e6 28 be b8 f5 fd bd f0 c1 09 be 70 36 00 be
       -0.16494179 -0.12400383 -0.13452888 -0.12520766
000130 f4 fb 29 be a4 32 20 be b0 74 55 be 04 cc 50 be
       -0.16600019 -0.15644318 -0.20845294 -0.20390326
000140 f8 0b 47 be 14 4e 30 be dc e6 24 be 24 b1 18 be
       -0.1943816 -0.17217284 -0.16103691 -0.14911324
000150 f0 76 14 be 04 d3 15 be 20 67 2f be e0 a2 2a be
       -0.14498496 -0.14631277 -0.17129183 -0.16663694
000160 3c a7 28 be 80 e8 30 be 24 a6 44 be c8 bb 1d be
       -0.16470045 -0.17276192 -0.19204003 -0.15403664
000170 7c 4f 4c be b8 61 20 be 1c 54 2b be 58 12 21 be
       -0.19952196 -0.15662277 -0.16731304 -0.15729654
000180 08 ad 2f be a4 f7 29 be 30 ca 1d be 88 54 1a be
       -0.1715585 -0.16598374 -0.1540916 -0.15071309
000190 28 b3 06 be cc 41 11 be 78 ea 2d be 60 75 20 be
       -0.1315428 -0.14185256 -0.16983974 -0.15669775
0001a0 9c 21 47 be e8 32 4a be 4c 39 7d be 14 9a 76 be
       -0.19446415 -0.19745982 -0.24728888 -0.24082214
0001b0 18 69 79 be b0 f2 42 be 10 ac 55 be d4 e7 79 be
       -0.24356496 -0.1903789 -0.20866418 -0.24404842
0001c0 f8 49 43 be c8 86 7d be 00 44 7b be 88 5d 2a be
       -0.19071186 -0.24758446 -0.24537659 -0.16637242
0001d0 6c 72 1d be 50 19 76 be 84 c9 26 be 44 f4 23 be
       -0.1537568 -0.24033093 -0.1628781 -0.16011149
0001e0 88 45 7d be 58 a5 1d be b4 26 30 be 0c 36 2b be
       -0.24733555 -0.15395105 -0.17202264 -0.16719836
0001f0 cc d1 28 be b4 f1 1d be 2c cd 31 be a4 67 7c be
       -0.16486281 -0.15424234 -0.17363423 -0.24648911
000200 04 e5 6b be 44 a2 4c be 68 ae 1d be 98 4e 59 be
       -0.23036581 -0.19983774 -0.15398562 -0.21221387
000210 c4 63 7a be 28 13 48 be e4 98 1d be 24 be 2f be
       -0.2445212 -0.19538558 -0.15390354 -0.17162377
000220 14 9a 17 be 78 cc 05 be 9c 1b 00 be c4 9c 1d be
       -0.1480487 -0.1306628 -0.12510532 -0.15391833
000230 28 09 22 be 00 6a 4f be b8 55 1f be 98 70 22 be
       -0.15823805 -0.2025528 -0.15560043 -0.15863264
000240 90 92 1d be 80 a8 21 be 10 08 7f be 34 6f 7e be
       -0.1538794 -0.15786934 -0.2490542 -0.24847108
000250 60 50 78 be 88 01 2e be 38 67 21 be 88 aa fb bd
       -0.2424941 -0.16992772 -0.15762031 -0.12288386
000260 e0 0f 02 be 98 20 17 be 38 f4 1b be f4 62 2c be
       -0.12701368 -0.14758527 -0.15229881 -0.16834623
000270 64 78 1e be 20 6c 29 be 88 08 1e be 04 95 1e be
       -0.15475613 -0.16545153 -0.15432942 -0.15486532
000280 60 55 80 be 64 df 73 be e8 ff 3f be ac 5c 2d be
       -0.25065136 -0.23815686 -0.18749964 -0.16929883
000290 04 fe 48 be d4 88 39 be 58 b7 76 be 90 6a 7f be
       -0.1962815 -0.18118602 -0.24093378 -0.24942994
0002a0 ac d5 62 be bc 32 4d be d0 96 24 be ac 61 30 be
       -0.22151822 -0.20038885 -0.16073155 -0.17224759
0002b0 f0 90 28 be 58 8d 2e be a8 72 2c be 14 75 19 be
       -0.1646154 -0.17046106 -0.16840613 -0.14986068
0002c0 68 00 35 be 04 bf 14 be e4 a5 2f be 74 15 54 be
       -0.17675936 -0.14525992 -0.17153126 -0.20711309
0002d0 48 92 77 be 14 96 25 be 94 5c 2b be f4 a4 06 be
       -0.24176896 -0.16170532 -0.16734535 -0.13148862
0002e0 6c 79 19 be a0 a8 35 be e8 27 3e be 38 57 fe bd
       -0.14987725 -0.17740107 -0.1856991 -0.124189794
0002f0 bc f2 02 be e4 94 1f be 50 b6 ff bd c4 53 2c be
       -0.12787908 -0.15584141 -0.12485945 -0.16828829
000300 bc 9a 21 be 34 12 30 be c8 6b 2e be 50 be 1d be
       -0.15781683 -0.17194444 -0.17033303 -0.1540463
000310 ac 02 2f be a4 48 26 be 10 8d fc bd 00 d9 fb bd
       -0.17090863 -0.16238648 -0.12331593 -0.12297249
000320 00 98 00 be 80 16 fc bd 94 cf 04 be 1c 64 1b be
       -0.12557983 -0.12308979 -0.1296981 -0.15174907
000330 8c cd 1e be e4 f9 1e be 1c 6a 1d be 8c 08 2a be
       -0.15508097 -0.15525013 -0.15372509 -0.16604823
000340 f8 01 26 be 24 fe 29 be b8 59 29 be 30 41 30 be
       -0.16211689 -0.16600853 -0.16538131 -0.17212367
000350 c0 ee 1e be 60 0f 1b be a0 c2 1a be 64 7f 2e be
       -0.15520763 -0.15142584 -0.15113306 -0.17040783
000360 88 63 1f be ac cf 22 be 18 e8 03 be 8c c8 28 be
       -0.15565312 -0.15899533 -0.12881505 -0.16482753
000370 9c 16 06 be 70 56 fe bd cc 21 16 be a0 a2 fb bd
       -0.13094562 -0.124188304 -0.1466133 -0.12286878
000380 00 d7 07 be 98 d7 00 be d0 61 00 be c8 de ff bd
       -0.1326561 -0.12582242 -0.12537313 -0.12493664
000390 60 ee fc bd 18 ac fb bd 1c 81 01 be 28 ba 2d be
       -0.12350154 -0.12288684 -0.12646908 -0.16965544
0003a0 10 12 2e be e8 50 30 be 20 b7 27 be 00 9f fb bd
       -0.16999078 -0.17218363 -0.1637845 -0.12286186
0003b0 08 b2 fb bd f4 41 2e be d8 0b 05 be d4 91 0f be
       -0.12289816 -0.17017347 -0.129928 -0.14020473
0003c0 b0 61 1d be 58 de 12 be 84 86 20 be b0 9b 17 be
       -0.15369296 -0.1434263 -0.15676314 -0.14805484
0003d0 20 5a 30 be 2c 3f 22 be 6c 0e 31 be 18 83 53 be
       -0.1722188 -0.1584441 -0.17290658 -0.20655477
0003e0 e8 f4 79 be bc 46 22 be 68 e6 2c be c0 41 2d be
       -0.2440983 -0.15847296 -0.16884768 -0.16919613
0003f0 d4 54 1a be c4 e3 00 be 08 6b 0d be 88 d0 29 be
       -0.15071422 -0.12586886 -0.1381036 -0.16583455
