Levy_process_model/WN_model/wavelet_meanrev_checkpoint.pth (torch, 2807 bytes, 3 tensors)

b f4 [1, 15]
0.40863225 -1.7677755 -0.53077567 1.4828665 1.0473483 -0.13463508 -0.52509505 1.887582
2.0573528 0.0060752323 0.25953987 0.9812582 0.40703744 0.7022012 0.44019905
00000000: 3f38 d13e 7846 e2bf eae0 07bf 92ce bd3f
00000010: 820f 863f c7dd 09be a16c 06bf 499c f13f
00000020: abab 0340 be12 c73b 69e2 843e bd33 7b3f
00000030: 3667 d03e 75c3 333f c561 e13e

log_a f4 [1, 15]
1.2120326 1.6620266 0.68967843 1.701489 0.17540388 4.563929 2.253688 3.9385056
4.3080196 1.5675508 0.7267943 0.2150703 4.0095367 1.7218697 0.24755067
00000000: e223 9b3f 4abd d43f c48e 303f 64ca d93f
00000010: 139d 333e b50b 9240 6d3c 1040 7a10 7c40
00000020: 4cdb 8940 81a5 c83f 310f 3a3f 643b 5c3e
00000030: 204e 8040 3a66 dc3f ec7d 7d3e

linear_x.weight f4 [1, 15]
0.9650082 -0.14900753 -0.05529797 0.022601862 0.009103689 0.017872661 -0.009110584 0.013575152
0.0033726923 0.0056556836 0.0037949942 -0.0049025463 0.011685567 -0.005360452 0.01743647
00000000: c70a 773f 6e95 18be 2080 62bd 8a27 b93c
00000010: a427 153c b069 923c 8f44 15bc 506a 5e3c
00000020: 6308 5d3b 5053 b93b 70b5 783b 8aa5 a0bb
00000030: d274 3f3c bba6 afbb eed6 8e3c
